{"class_name": "Sequential", "keras_version": "2.0.5", "config": [{"class_name": "Embedding", "config": {"embeddings_initializer": {"class_name": "RandomUniform", "config": {"maxval": 0.05, "seed": null, "minval": -0.05}}, "name": "embedding_10", "dtype": "int32", "output_dim": 128, "trainable": true, "embeddings_regularizer": null, "input_dim": 7478, "mask_zero": false, "embeddings_constraint": null, "batch_input_shape": [null, 34], "activity_regularizer": null, "input_length": 34}}, {"class_name": "LSTM", "config": {"recurrent_activation": "hard_sigmoid", "trainable": true, "recurrent_initializer": {"class_name": "Orthogonal", "config": {"seed": null, "gain": 1.0}}, "use_bias": true, "bias_regularizer": null, "return_state": false, "unroll": false, "activation": "tanh", "bias_initializer": {"class_name": "Zeros", "config": {}}, "units": 64, "unit_forget_bias": true, "activity_regularizer": null, "recurrent_dropout": 0.0, "kernel_initializer": {"class_name": "VarianceScaling", "config": {"distribution": "uniform", "scale": 1.0, "seed": null, "mode": "fan_avg"}}, "kernel_constraint": null, "dropout": 0.0, "stateful": false, "recurrent_regularizer": null, "name": "lstm_28", "bias_constraint": null, "go_backwards": false, "implementation": 0, "kernel_regularizer": null, "return_sequences": true, "recurrent_constraint": null}}, {"class_name": "Dropout", "config": {"rate": 0.1, "trainable": true, "name": "dropout_28"}}, {"class_name": "LSTM", "config": {"recurrent_activation": "hard_sigmoid", "trainable": true, "recurrent_initializer": {"class_name": "Orthogonal", "config": {"seed": null, "gain": 1.0}}, "use_bias": true, "bias_regularizer": null, "return_state": false, "unroll": false, "activation": "tanh", "bias_initializer": {"class_name": "Zeros", "config": {}}, "units": 64, "unit_forget_bias": true, "activity_regularizer": null, "recurrent_dropout": 0.0, "kernel_initializer": {"class_name": "VarianceScaling", "config": {"distribution": "uniform", "scale": 1.0, "seed": null, "mode": "fan_avg"}}, "kernel_constraint": null, "dropout": 0.0, "stateful": false, "recurrent_regularizer": null, "name": "lstm_29", "bias_constraint": null, "go_backwards": false, "implementation": 0, "kernel_regularizer": null, "return_sequences": true, "recurrent_constraint": null}}, {"class_name": "Dropout", "config": {"rate": 0.1, "trainable": true, "name": "dropout_29"}}, {"class_name": "LSTM", "config": {"recurrent_activation": "hard_sigmoid", "trainable": true, "recurrent_initializer": {"class_name": "Orthogonal", "config": {"seed": null, "gain": 1.0}}, "use_bias": true, "bias_regularizer": null, "return_state": false, "unroll": false, "activation": "tanh", "bias_initializer": {"class_name": "Zeros", "config": {}}, "units": 64, "unit_forget_bias": true, "activity_regularizer": null, "recurrent_dropout": 0.0, "kernel_initializer": {"class_name": "VarianceScaling", "config": {"distribution": "uniform", "scale": 1.0, "seed": null, "mode": "fan_avg"}}, "kernel_constraint": null, "dropout": 0.0, "stateful": false, "recurrent_regularizer": null, "name": "lstm_30", "bias_constraint": null, "go_backwards": false, "implementation": 0, "kernel_regularizer": null, "return_sequences": false, "recurrent_constraint": null}}, {"class_name": "Dropout", "config": {"rate": 0.1, "trainable": true, "name": "dropout_30"}}, {"class_name": "Dense", "config": {"kernel_initializer": {"class_name": "RandomUniform", "config": {"maxval": 0.05, "seed": null, "minval": -0.05}}, "name": "dense_10", "kernel_constraint": null, "bias_regularizer": null, "bias_constraint": null, "activation": "softmax", "trainable": true, "kernel_regularizer": null, "bias_initializer": {"class_name": "Zeros", "config": {}}, "units": 2, "use_bias": true, "activity_regularizer": null}}], "backend": "tensorflow"}